Wav2Lip(
  (face_encoder_blocks):
      ModuleList(
        (0): Sequential(
          (0): Conv2d(
            (conv_block): Sequential(
              (0): Conv2d(6, 16, kernel_size=(7, 7), stride=(1, 1), padding=(3, 3))
              (1): BatchNorm2d(16, eps=1e-05, momentum=0.1, affine=True, track_running_stats=True)
            )
            (act): ReLU()
          )
        )
        (1): Sequential(
          (0): Conv2d(
            (conv_block): Sequential(
              (0): Conv2d(16, 32, kernel_size=(3, 3), stride=(2, 2), padding=(1, 1))
              (1): BatchNorm2d(32, eps=1e-05, momentum=0.1, affine=True, track_running_stats=True)
            )
            (act): ReLU()
          )
          (1): Conv2d(
            (conv_block): Sequential(
              (0): Conv2d(32, 32, kernel_size=(3, 3), stride=(1, 1), padding=(1, 1))
              (1): BatchNorm2d(32, eps=1e-05, momentum=0.1, affine=True, track_running_stats=True)
            )
            (act): ReLU()
          )
          (2): Conv2d(
            (conv_block): Sequential(
              (0): Conv2d(32, 32, kernel_size=(3, 3), stride=(1, 1), padding=(1, 1))
              (1): BatchNorm2d(32, eps=1e-05, momentum=0.1, affine=True, track_running_stats=True)
            )
            (act): ReLU()
          )
        )
        (2): Sequential(
          (0): Conv2d(
            (conv_block): Sequential(
              (0): Conv2d(32, 64, kernel_size=(3, 3), stride=(2, 2), padding=(1, 1))
              (1): BatchNorm2d(64, eps=1e-05, momentum=0.1, affine=True, track_running_stats=True)
            )
            (act): ReLU()
          )
          (1): Conv2d(
            (conv_block): Sequential(
              (0): Conv2d(64, 64, kernel_size=(3, 3), stride=(1, 1), padding=(1, 1))
              (1): BatchNorm2d(64, eps=1e-05, momentum=0.1, affine=True, track_running_stats=True)
            )
            (act): ReLU()
          )
          (2): Conv2d(
            (conv_block): Sequential(
              (0): Conv2d(64, 64, kernel_size=(3, 3), stride=(1, 1), padding=(1, 1))
              (1): BatchNorm2d(64, eps=1e-05, momentum=0.1, affine=True, track_running_stats=True)
            )
            (act): ReLU()
          )
          (3): Conv2d(
            (conv_block): Sequential(
              (0): Conv2d(64, 64, kernel_size=(3, 3), stride=(1, 1), padding=(1, 1))
              (1): BatchNorm2d(64, eps=1e-05, momentum=0.1, affine=True, track_running_stats=True)
            )
            (act): ReLU()
          )
        )
        (3): Sequential(
          (0): Conv2d(
            (conv_block): Sequential(
              (0): Conv2d(64, 128, kernel_size=(3, 3), stride=(2, 2), padding=(1, 1))
              (1): BatchNorm2d(128, eps=1e-05, momentum=0.1, affine=True, track_running_stats=True)
            )
            (act): ReLU()
          )
          (1): Conv2d(
            (conv_block): Sequential(
              (0): Conv2d(128, 128, kernel_size=(3, 3), stride=(1, 1), padding=(1, 1))
              (1): BatchNorm2d(128, eps=1e-05, momentum=0.1, affine=True, track_running_stats=True)
            )
            (act): ReLU()
          )
          (2): Conv2d(
            (conv_block): Sequential(
              (0): Conv2d(128, 128, kernel_size=(3, 3), stride=(1, 1), padding=(1, 1))
              (1): BatchNorm2d(128, eps=1e-05, momentum=0.1, affine=True, track_running_stats=True)
            )
            (act): ReLU()
          )
        )
        (4): Sequential(
          (0): Conv2d(
            (conv_block): Sequential(
              (0): Conv2d(128, 256, kernel_size=(3, 3), stride=(2, 2), padding=(1, 1))
              (1): BatchNorm2d(256, eps=1e-05, momentum=0.1, affine=True, track_running_stats=True)
            )
            (act): ReLU()
          )
          (1): Conv2d(
            (conv_block): Sequential(
              (0): Conv2d(256, 256, kernel_size=(3, 3), stride=(1, 1), padding=(1, 1))
              (1): BatchNorm2d(256, eps=1e-05, momentum=0.1, affine=True, track_running_stats=True)
            )
            (act): ReLU()
          )
          (2): Conv2d(
            (conv_block): Sequential(
              (0): Conv2d(256, 256, kernel_size=(3, 3), stride=(1, 1), padding=(1, 1))
              (1): BatchNorm2d(256, eps=1e-05, momentum=0.1, affine=True, track_running_stats=True)
            )
            (act): ReLU()
          )
        )
        (5): Sequential(
          (0): Conv2d(
            (conv_block): Sequential(
              (0): Conv2d(256, 512, kernel_size=(3, 3), stride=(2, 2), padding=(1, 1))
              (1): BatchNorm2d(512, eps=1e-05, momentum=0.1, affine=True, track_running_stats=True)
            )
            (act): ReLU()
          )
          (1): Conv2d(
            (conv_block): Sequential(
              (0): Conv2d(512, 512, kernel_size=(3, 3), stride=(1, 1), padding=(1, 1))
              (1): BatchNorm2d(512, eps=1e-05, momentum=0.1, affine=True, track_running_stats=True)
            )
            (act): ReLU()
          )
        )
        (6): Sequential(
          (0): Conv2d(
            (conv_block): Sequential(
              (0): Conv2d(512, 512, kernel_size=(3, 3), stride=(1, 1))
              (1): BatchNorm2d(512, eps=1e-05, momentum=0.1, affine=True, track_running_stats=True)
            )
            (act): ReLU()
          )
          (1): Conv2d(
            (conv_block): Sequential(
              (0): Conv2d(512, 512, kernel_size=(1, 1), stride=(1, 1))
              (1): BatchNorm2d(512, eps=1e-05, momentum=0.1, affine=True, track_running_stats=True)
            )
            (act): ReLU()
          )
        )
      )


  (audio_encoder):
      Sequential(
        (0): Conv2d(
          (conv_block): Sequential(
            (0): Conv2d(1, 32, kernel_size=(3, 3), stride=(1, 1), padding=(1, 1))
            (1): BatchNorm2d(32, eps=1e-05, momentum=0.1, affine=True, track_running_stats=True)
          )
          (act): ReLU()
        )
        (1): Conv2d(
          (conv_block): Sequential(
            (0): Conv2d(32, 32, kernel_size=(3, 3), stride=(1, 1), padding=(1, 1))
            (1): BatchNorm2d(32, eps=1e-05, momentum=0.1, affine=True, track_running_stats=True)
          )
          (act): ReLU()
        )
        (2): Conv2d(
          (conv_block): Sequential(
            (0): Conv2d(32, 32, kernel_size=(3, 3), stride=(1, 1), padding=(1, 1))
            (1): BatchNorm2d(32, eps=1e-05, momentum=0.1, affine=True, track_running_stats=True)
          )
          (act): ReLU()
        )
        (3): Conv2d(
          (conv_block): Sequential(
            (0): Conv2d(32, 64, kernel_size=(3, 3), stride=(3, 1), padding=(1, 1))
            (1): BatchNorm2d(64, eps=1e-05, momentum=0.1, affine=True, track_running_stats=True)
          )
          (act): ReLU()
        )
        (4): Conv2d(
          (conv_block): Sequential(
            (0): Conv2d(64, 64, kernel_size=(3, 3), stride=(1, 1), padding=(1, 1))
            (1): BatchNorm2d(64, eps=1e-05, momentum=0.1, affine=True, track_running_stats=True)
          )
          (act): ReLU()
        )
        (5): Conv2d(
          (conv_block): Sequential(
            (0): Conv2d(64, 64, kernel_size=(3, 3), stride=(1, 1), padding=(1, 1))
            (1): BatchNorm2d(64, eps=1e-05, momentum=0.1, affine=True, track_running_stats=True)
          )
          (act): ReLU()
        )
        (6): Conv2d(
          (conv_block): Sequential(
            (0): Conv2d(64, 128, kernel_size=(3, 3), stride=(3, 3), padding=(1, 1))
            (1): BatchNorm2d(128, eps=1e-05, momentum=0.1, affine=True, track_running_stats=True)
          )
          (act): ReLU()
        )
        (7): Conv2d(
          (conv_block): Sequential(
            (0): Conv2d(128, 128, kernel_size=(3, 3), stride=(1, 1), padding=(1, 1))
            (1): BatchNorm2d(128, eps=1e-05, momentum=0.1, affine=True, track_running_stats=True)
          )
          (act): ReLU()
        )
        (8): Conv2d(
          (conv_block): Sequential(
            (0): Conv2d(128, 128, kernel_size=(3, 3), stride=(1, 1), padding=(1, 1))
            (1): BatchNorm2d(128, eps=1e-05, momentum=0.1, affine=True, track_running_stats=True)
          )
          (act): ReLU()
        )
        (9): Conv2d(
          (conv_block): Sequential(
            (0): Conv2d(128, 256, kernel_size=(3, 3), stride=(3, 2), padding=(1, 1))
            (1): BatchNorm2d(256, eps=1e-05, momentum=0.1, affine=True, track_running_stats=True)
          )
          (act): ReLU()
        )
        (10): Conv2d(
          (conv_block): Sequential(
            (0): Conv2d(256, 256, kernel_size=(3, 3), stride=(1, 1), padding=(1, 1))
            (1): BatchNorm2d(256, eps=1e-05, momentum=0.1, affine=True, track_running_stats=True)
          )
          (act): ReLU()
        )
        (11): Conv2d(
          (conv_block): Sequential(
            (0): Conv2d(256, 512, kernel_size=(3, 3), stride=(1, 1))
            (1): BatchNorm2d(512, eps=1e-05, momentum=0.1, affine=True, track_running_stats=True)
          )
          (act): ReLU()
        )
        (12): Conv2d(
          (conv_block): Sequential(
            (0): Conv2d(512, 512, kernel_size=(1, 1), stride=(1, 1))
            (1): BatchNorm2d(512, eps=1e-05, momentum=0.1, affine=True, track_running_stats=True)
          )
          (act): ReLU()
        )
      )
  (face_decoder_blocks):
      ModuleList(
        (0): Sequential(
          (0): Conv2d(
            (conv_block): Sequential(
              (0): Conv2d(512, 512, kernel_size=(1, 1), stride=(1, 1))
              (1): BatchNorm2d(512, eps=1e-05, momentum=0.1, affine=True, track_running_stats=True)
            )
            (act): ReLU()
          )
        )
        (1): Sequential(
          (0): Conv2dTranspose(
            (conv_block): Sequential(
              (0): ConvTranspose2d(1024, 512, kernel_size=(3, 3), stride=(1, 1))
              (1): BatchNorm2d(512, eps=1e-05, momentum=0.1, affine=True, track_running_stats=True)
            )
            (act): ReLU()
          )
          (1): Conv2d(
            (conv_block): Sequential(
              (0): Conv2d(512, 512, kernel_size=(3, 3), stride=(1, 1), padding=(1, 1))
              (1): BatchNorm2d(512, eps=1e-05, momentum=0.1, affine=True, track_running_stats=True)
            )
            (act): ReLU()
          )
        )
        (2): Sequential(
          (0): Conv2dTranspose(
            (conv_block): Sequential(
              (0): ConvTranspose2d(1024, 512, kernel_size=(3, 3), stride=(2, 2), padding=(1, 1), output_padding=(1, 1))
              (1): BatchNorm2d(512, eps=1e-05, momentum=0.1, affine=True, track_running_stats=True)
            )
            (act): ReLU()
          )
          (1): Conv2d(
            (conv_block): Sequential(
              (0): Conv2d(512, 512, kernel_size=(3, 3), stride=(1, 1), padding=(1, 1))
              (1): BatchNorm2d(512, eps=1e-05, momentum=0.1, affine=True, track_running_stats=True)
            )
            (act): ReLU()
          )
          (2): Conv2d(
            (conv_block): Sequential(
              (0): Conv2d(512, 512, kernel_size=(3, 3), stride=(1, 1), padding=(1, 1))
              (1): BatchNorm2d(512, eps=1e-05, momentum=0.1, affine=True, track_running_stats=True)
            )
            (act): ReLU()
          )
        )
        (3): Sequential(
          (0): Conv2dTranspose(
            (conv_block): Sequential(
              (0): ConvTranspose2d(768, 384, kernel_size=(3, 3), stride=(2, 2), padding=(1, 1), output_padding=(1, 1))
              (1): BatchNorm2d(384, eps=1e-05, momentum=0.1, affine=True, track_running_stats=True)
            )
            (act): ReLU()
          )
          (1): Conv2d(
            (conv_block): Sequential(
              (0): Conv2d(384, 384, kernel_size=(3, 3), stride=(1, 1), padding=(1, 1))
              (1): BatchNorm2d(384, eps=1e-05, momentum=0.1, affine=True, track_running_stats=True)
            )
            (act): ReLU()
          )
          (2): Conv2d(
            (conv_block): Sequential(
              (0): Conv2d(384, 384, kernel_size=(3, 3), stride=(1, 1), padding=(1, 1))
              (1): BatchNorm2d(384, eps=1e-05, momentum=0.1, affine=True, track_running_stats=True)
            )
            (act): ReLU()
          )
        )
        (4): Sequential(
          (0): Conv2dTranspose(
            (conv_block): Sequential(
              (0): ConvTranspose2d(512, 256, kernel_size=(3, 3), stride=(2, 2), padding=(1, 1), output_padding=(1, 1))
              (1): BatchNorm2d(256, eps=1e-05, momentum=0.1, affine=True, track_running_stats=True)
            )
            (act): ReLU()
          )
          (1): Conv2d(
            (conv_block): Sequential(
              (0): Conv2d(256, 256, kernel_size=(3, 3), stride=(1, 1), padding=(1, 1))
              (1): BatchNorm2d(256, eps=1e-05, momentum=0.1, affine=True, track_running_stats=True)
            )
            (act): ReLU()
          )
          (2): Conv2d(
            (conv_block): Sequential(
              (0): Conv2d(256, 256, kernel_size=(3, 3), stride=(1, 1), padding=(1, 1))
              (1): BatchNorm2d(256, eps=1e-05, momentum=0.1, affine=True, track_running_stats=True)
            )
            (act): ReLU()
          )
        )
        (5): Sequential(
          (0): Conv2dTranspose(
            (conv_block): Sequential(
              (0): ConvTranspose2d(320, 128, kernel_size=(3, 3), stride=(2, 2), padding=(1, 1), output_padding=(1, 1))
              (1): BatchNorm2d(128, eps=1e-05, momentum=0.1, affine=True, track_running_stats=True)
            )
            (act): ReLU()
          )
          (1): Conv2d(
            (conv_block): Sequential(
              (0): Conv2d(128, 128, kernel_size=(3, 3), stride=(1, 1), padding=(1, 1))
              (1): BatchNorm2d(128, eps=1e-05, momentum=0.1, affine=True, track_running_stats=True)
            )
            (act): ReLU()
          )
          (2): Conv2d(
            (conv_block): Sequential(
              (0): Conv2d(128, 128, kernel_size=(3, 3), stride=(1, 1), padding=(1, 1))
              (1): BatchNorm2d(128, eps=1e-05, momentum=0.1, affine=True, track_running_stats=True)
            )
            (act): ReLU()
          )
        )
        (6): Sequential(
          (0): Conv2dTranspose(
            (conv_block): Sequential(
              (0): ConvTranspose2d(160, 64, kernel_size=(3, 3), stride=(2, 2), padding=(1, 1), output_padding=(1, 1))
              (1): BatchNorm2d(64, eps=1e-05, momentum=0.1, affine=True, track_running_stats=True)
            )
            (act): ReLU()
          )
          (1): Conv2d(
            (conv_block): Sequential(
              (0): Conv2d(64, 64, kernel_size=(3, 3), stride=(1, 1), padding=(1, 1))
              (1): BatchNorm2d(64, eps=1e-05, momentum=0.1, affine=True, track_running_stats=True)
            )
            (act): ReLU()
          )
          (2): Conv2d(
            (conv_block): Sequential(
              (0): Conv2d(64, 64, kernel_size=(3, 3), stride=(1, 1), padding=(1, 1))
              (1): BatchNorm2d(64, eps=1e-05, momentum=0.1, affine=True, track_running_stats=True)
            )
            (act): ReLU()
          )
        )
      )
  (output_block):
      Sequential(
        (0): Conv2d(
          (conv_block): Sequential(
            (0): Conv2d(80, 32, kernel_size=(3, 3), stride=(1, 1), padding=(1, 1))
            (1): BatchNorm2d(32, eps=1e-05, momentum=0.1, affine=True, track_running_stats=True)
          )
          (act): ReLU()
        )
        (1): Conv2d(32, 3, kernel_size=(1, 1), stride=(1, 1))
        (2): Sigmoid()
      )
)
